mini_projects/RnnModelTest1.npz (npz, 163686 bytes, 7 tensors)

W f8 [1, 50, 100]
00000000: dd8e 08b3 b304 c93f a81d 19cb e140 c0bf
00000010: 6b1a a0a7 c51e c3bf e145 28b1 0c5c a93f
00000020: 40fe ccb0 8dae 923f a18c 987f ffb8 c13f
00000030: d034 6d18 9519 c9bf 97bd a9c7 5018 b9bf
00000040: 6331 5514 fa41 c7bf 8567 3dce b8cf b9bf
00000050: bb2c acfe 7780 813f 4fdd 1426 3221 8ebf
00000060: 8027 3884 bf1d c0bf 6ba8 ca71 8dc8 993f
00000070: 576f 2685 9293 a7bf 8033 883e 8343 c2bf
00000080: d6af 380e d61c c0bf 2281 19bb e4ec 9d3f
00000090: e74b 0228 7b91 c63f 2ed7 524b 4083 d1bf
000000a0: a936 d1dd 0c72 95bf 8ce3 f8c7 5966 a1bf
000000b0: c039 be63 79b8 b4bf 082a 45ad ca86 acbf
000000c0: 956a ec8d 0f75 c6bf 6ba8 0359 3742 b3bf
000000d0: 04e1 ae06 c337 bf3f 73b5 74ab e769 b1bf
000000e0: b25e aa27 151e c1bf bb2e e6f6 59f6 c2bf
000000f0: 8eef 1143 aa64 adbf f1cc 2900 edf6 d3bf
00000100: d764 bb7c af71 67bf 3b91 a863 e3c1 bdbf
00000110: 9aa8 acc7 f036 b93f d391 036d f0d3 d7bf
00000120: f724 4f5f 3f35 bbbf 7866 47d1 eccf 893f
00000130: 539a d9bd d533 b4bf b4a8 dd57 10d7 c3bf
00000140: 77c7 f7f0 c3ca c93f 0ce9 739d 3ab9 9ebf
00000150: 7c56 5032 8575 a73f 803b 3612 259a 963f
00000160: 0a45 b1ee 9e77 c43f 42dc f3eb fea2 833f
00000170: cd3b b423 bc51 6dbf c1c8 8498 11b2 c1bf
00000180: be4f dac4 4bba d03f 619e cdac 5dda bf3f
00000190: 5ad3 4616 369d b0bf ac88 dd9c 352a c1bf
000001a0: f8d9 b6a0 f9cb ba3f c607 cb4c 224a c13f
000001b0: 9a1d d2a7 3060 a93f d36f ed98 82d8 c2bf
000001c0: 45f0 264d 45a8 9ebf 0c5a a323 0b22 d6bf
000001d0: a477 6fce e36e d4bf 034b 2401 71a1 b93f
000001e0: 751d c4ec 4b70 c23f b364 7e16 6781 cabf
000001f0: 5126 7000 4d37 b7bf de6a 3a10 2538 b2bf
00000200: 267a 1b94 c1b5 75bf 11b4 b7f8 bd07 b03f
00000210: dd2a c3e6 4e3f c2bf 0d89 6c2b 48cd ca3f
00000220: 2ec0 647d 9249 c13f 4da6 dbfc cfe5 c03f
00000230: 8687 9545 3391 d93f f2ce b5aa 75be cdbf
00000240: f741 5b65 f23f b73f f275 0f99 d690 bc3f
00000250: 9df5 6be1 054e c23f c8a0 503a c05d cebf
00000260: 1c7d 0e4a 727d b63f c90f 5fab 3cf6 c63f
00000270: 5ecd 9da7 90fe c6bf cd6a 8e08 4beb 953f
00000280: 667f 73b2 044b a63f 98bf de3d 4ea9 b23f
00000290: 0d03 1a95 2b63 98bf ff41 8e27 d8c8 aa3f
000002a0: abff 7200 9c3e bc3f 8406 77dc 89a6 b4bf
000002b0: 8e7c bccd f477 96bf adbe 20cf 238e c23f
000002c0: 0eb3 cdd7 e1fb bdbf afd2 ecfe 2a6c b4bf
000002d0: 2adc d799 2255 d03f bdd6 115f dd0d ca3f
000002e0: 236a f1fb d77e b6bf b189 c459 6963 bdbf
000002f0: 972f 8355 77b9 b9bf 66fb 4f33 aa59 a1bf
00000300: 7c3c 09b5 9f0e b73f 4bb6 abd3 2864 76bf
00000310: 1aa9 e02d 675b d7bf de3e 2a9c da4d c4bf
00000320: be5e 0216 8ce0 2d3f 0ff9 e58e 88c0 9dbf
00000330: c6e3 936b 7bda a6bf 9b3b c525 94b8 973f
00000340: 49b6 294b 2091 c33f 63e7 5738 774d b93f
00000350: 56e1 a54c 776c c2bf 1243 1be4 ef66 d3bf
00000360: 65bd 7607 d005 bc3f 4fa4 fdd6 aad4 d0bf
00000370: ab94 c733 4f46 b23f 5457 a820 60ee 9cbf
00000380: e500 be92 77f7 8abf 8a8b 669f eb2d bcbf
00000390: 2d16 8732 df37 90bf 0bba 0e29 47c9 813f
000003a0: 0f27 a2ff d8a1 cb3f 2337 849f 38d5 c13f
000003b0: 954d f8c4 16b7 8ebf 61ad 99b0 aa05 bd3f
000003c0: be09 fc96 7c0a a3bf 6d73 ac06 ce1c a3bf
000003d0: 2e29 f816 07b2 b83f 56aa 4404 970e ca3f
000003e0: 471f e27c 1e3f c4bf 0fe6 e0bb 419f d6bf
000003f0: 4e8d 5e1d 460c b3bf 1f03 a44a b3cc 9bbf
00000400: 5342 ac9e a2de cc3f a7e4 aeb8 d2bf b0bf
00000410: a7fa d296 db23 b93f 1bad 629e e91e a53f
00000420: a141 c10b 92e0 abbf 82e1 72a7 0b51 a2bf
00000430: 19d5 8135 8b9b ad3f 6945 5ca5 1e0e b73f
00000440: 423f dda4 ae22 a2bf 106b 047c a6e1 ba3f
00000450: afd2 670b 30fe 8e3f 1a98 bc5b cd1d c9bf
00000460: 2671 3be8 10d6 d73f 323a d6d1 bcdd c13f
00000470: 0e7e 5184 d824 a43f c924 f393 eef8 b33f
00000480: c0fe 1fde e0ca 913f 25c7 6dd9 c883 8e3f
00000490: 3462 42e0 6d50 b83f 9bc7 32ae cf85 cdbf
000004a0: 4d06 5ab9 4321 ba3f 4b46 6992 ce5e 9ebf
000004b0: e0e2 7441 1c71 af3f fb12 9f5c a89d 833f
000004c0: 6200 9eb8 f2ff b1bf 4ed1 78df e20f c63f
000004d0: 3f88 e7c7 ef23 a9bf 064a a3c0 f6cf d2bf
000004e0: b355 15b6 845e b0bf 4f43 0c57 ef1d 79bf
000004f0: de67 ff11 0f66 d9bf 2f94 67cc a9fb 993f
00000500: b4d9 8056 0489 b9bf 4002 692a f1b1 cb3f
00000510: e230 bbcd 2e19 c03f 9f90 d26c f8a5 d2bf
00000520: b57f 1213 884f bfbf 561b 0e57 972f c6bf
00000530: f6fa 4e47 2bc1 ba3f 0e7f 1c26 2fa2 c63f
00000540: 29d2 91da 3625 cbbf b17f f381 b640 c53f
00000550: 9083 c406 350f bbbf d2c5 0211 bcf3 c2bf
00000560: 7146 2908 800d b5bf b03e d5d0 1414 b8bf
00000570: 5075 c7f7 2bbd 9abf 2036 056d 0478 a8bf
00000580: aa11 bed7 3264 61bf 9635 a87e 88dd b13f
00000590: d424 799d 8232 823f 329e e9f5 29a8 aa3f
000005a0: 718d ca4f 5e4e 733f 9ec2 9c45 58f5 ce3f
000005b0: 29c2 d801 6e79 b1bf db8a b0e1 560c b93f
000005c0: 20a3 2eb5 1c02 9abf 7851 b7e1 85e6 c4bf
000005d0: 03ed c821 52e2 c03f e3b5 9703 26a6 b4bf
000005e0: a3df 0c4f e3c6 d5bf 34b3 c2e8 9549 a6bf
000005f0: b3ee 4699 7501 c4bf 240f 0561 36ad b13f
00000600: 01d1 4d08 9b4a c4bf f915 b574 16a8 b43f
00000610: bec7 1d55 f322 b53f 875c 6d2e f4b6 b33f
00000620: 9e62 91b0 c299 9cbf 4758 c197 3bb4 ca3f
00000630: 28a0 98d6 f235 843f 39a0 6b26 87c1 c8bf
00000640: de1c 6d77 b903 c53f 85ee 7aea ec84 d03f
00000650: 79a6 f30b 0b58 c13f d5f0 cfc4 430e b83f
00000660: c8f0 3929 695c 713f 3d3e 24ab c519 cb3f
00000670: 939f b115 642e bebf ea3a da03 7db2 3cbf
00000680: 32bd 14ed 8e8e c73f 575f b1e0 d77f c53f
00000690: 3b42 6715 435a b63f 4ac0 a6c1 6814 b53f
000006a0: 5608 adfa 2542 a43f 0760 4f7c 067e d3bf
000006b0: 787f 6ddd 12f1 c2bf cd45 d78b 3ca7 b1bf
000006c0: eb85 38ed 3f3f 80bf 116d d40f 9ec2 b2bf
000006d0: 362b d2ab 93f7 ba3f 4e6b 50c0 bd10 d43f
000006e0: e2ea ec92 a2d1 d43f 0d3d 614e 43db aa3f
000006f0: a6e2 e5da 1d29 cd3f 62ef aa5d 678d c1bf
00000700: 2f12 837f 3291 9c3f d0d8 4453 c4ff babf
00000710: 429d 2bcf 1646 b03f ad1a 7dd1 baf3 af3f
00000720: 8e5a a673 7096 a4bf 2d5e bfa6 6bbe d0bf
00000730: babf 4638 b2e3 7c3f 1dd1 9b52 ae05 cbbf
00000740: 1b1f 6a70 fc2f b73f bdb7 693c 5d1f b13f
00000750: b95d 8af8 dfb7 c13f 2c10 7088 4f49 ce3f
00000760: 75ce f9fc febc 7dbf 5837 8b2f acab ad3f
00000770: 342b c4bb 9b78 b9bf 7b50 ed05 7a5d bebf
00000780: 5a18 685d 265c be3f e4ca 4b6e 32c2 653f
00000790: 4f96 84bb 562f a4bf b650 c4ef d314 bdbf
000007a0: 7012 d388 ec62 d1bf b04c c0c5 25e3 bf3f
000007b0: 5a93 491a 07ac c0bf 74d2 c87d 105e a13f
000007c0: 2b89 4b61 49c5 973f dd6d 088f 1a89 6dbf
000007d0: 5ebf 5bd4 a5c0 9dbf b55b f3c9 8c72 c63f
000007e0: 7d5d 1391 7e32 afbf c0fe 6078 89c6 843f
000007f0: 8af6 2fc4 5d9e b63f 0d5c c770 3c74 d53f
0.19545599214426704 -0.1269800416650757 -0.1493765896304525 0.04953040754856964 0.018243993679105452 0.13845819216030456 -0.19609321301178406 -0.09802727579675828
-0.18170095436870345 -0.10082583460953572 0.00854581590603797 -0.014711753642230234 -0.1259078403093632 0.025179109640398083 -0.046047762635878335 -0.14268532327005445
-0.12588000959783469 0.029223989410071323 0.17631473020136854 -0.27363593440837775 -0.020942879713678284 -0.033983998928710596 -0.0809398525727607 -0.05571587910761272
-0.17544741086824858 -0.07522912905884176 0.12194460786020406 -0.0680222314446917 -0.13373054920952182 -0.1481430488168963 -0.05740863865591371 -0.3119461537928166
-0.002861826656822868 -0.11623974974697131 0.09849457621445126 -0.37231073995488123 -0.1062812431038259 0.012603616844830898 -0.07891593823442493 -0.15500072756123517
0.20150040880212902 -0.03000346742644759 0.04581848372633332 0.022072390781939344 0.15990053801446208 0.009588233543111117 -0.003579013309383572 -0.13824672648622108
0.2613706037893698 0.12442574948146891 -0.06489885372032003 -0.13410062941972478 0.10467491315544197 0.13507488965666264 0.04956199692338288 -0.14723236529505232
-0.029938776811590868 -0.3458278511074304 -0.31926818046292227 0.10011965062976107 0.14405201969951134 -0.20707405660940523 -0.09068757305808474 -0.07116920133777735
-0.005300289312542483 0.06261813471037693 -0.14255701320356354 0.20938970680533267 0.1350577461503248 0.13201331945974673 0.3994873218090266 -0.2323748668237538
0.09081950163386653 0.11158505665613186 0.14300607211036445 -0.23723605010423499 0.08785166080496193 0.17938955657711933 -0.17964370903392085 0.02140538444255462
0.043541094573582836 0.07289589891911274 -0.023815804458084112 0.05231357081277465 0.11033034335105067 -0.08066617615170385 -0.02194197183336804 0.14496276487033324
-0.11712466734543289 -0.0797755119682033 0.25519623779058753 0.20354811803888664 -0.08787298108055856 -0.11479814950556634 -0.10048623883920836 -0.033887213481640185
0.09006689233614112 -0.0054666132734673785 -0.36495379905922365 -0.15862591386075214 0.00022794446977480136 -0.029054769250699993 -0.04463563621715809 0.023165049367260698
0.15286639852586095 0.0988382828290049 -0.14393512003494874 -0.30315778041863084 0.10946369344923353 -0.26298018450922184 0.0713853360571927 -0.02825308036161485
-0.013167318502155865 -0.11007568971267126 -0.01583813424965379 0.008684688511348978 0.21587669832325004 0.1393194941414829 -0.014997651945157378 0.11336771785288625
-0.037189382010200486 -0.03732913810220038 0.09646648703361357 0.2035702486840189 -0.158176241853875 -0.35347026202688964 -0.07440603463196746 -0.02714805739470016
0.22554428813647806 -0.06542698868624318 0.09820339615087424 0.04125146921554742 -0.05444771188251996 -0.03577457827617804 0.05782732990420864 0.09005919968719457
-0.03542085421088227 0.10500565078511337 0.015133262012548469 -0.1962219903882108 0.3724405544178516 0.13957939382494683 0.03934361090864168 0.07801715004019906
0.017375482137139242 0.014899796615029335 0.09497725224572023 -0.23064609533099376 0.10207007670580844 -0.029658534704429845 0.06140983866720773 0.009578051878528884
-0.0703117085195131 0.17235980903354647 -0.04910229983558211 -0.2939431077221858 -0.06394223637956635 -0.006132063791270805 -0.39685417897783093 0.025374081707827564
-0.09974696266076571 0.21636786051569068 0.12576851888150659 -0.291380029937736 -0.1223073050082338 -0.17332736731278925 0.10451002589159572 0.17682446823982229
-0.21207318947166812 0.16603738160392603 -0.10570079245782282 -0.148063190752096 -0.08223724555252844 -0.09405641649686447 -0.026112257955778262 -0.04779065924467951
-0.002122973730310747 0.06978657810414854 0.00888540309019207 0.05206423880445889 0.004713409810082823 0.24186232947387948 -0.06825912041745909 0.09784453401565989
-0.025398682173235376 -0.16328500291150383 0.1319067635502976 -0.08066022479734829 -0.34026415557627326 -0.043530163443710995 -0.15629453644020472 0.06904926174780407
-0.15852678208796792 0.08068981503773633 0.0825645525744951 0.07701040395237345 -0.027930299784517325 0.20862526807713008 0.009868523763614759 -0.1934060037231136
0.16417616206511004 0.2581131257863734 0.1354993637426565 0.09396766238200212 0.004238520417512777 0.21172400337717248 -0.11789536981234354 -0.00043788482785426955
0.1840380342123154 0.16796396704989533 0.08731478951018172 0.08234266975228013 0.0395671719075074 -0.3045669759717388 -0.14798198520565697 -0.06895807661137283
-0.007933139254478546 -0.07328212629765953 0.10534022278640695 0.3135218027179477 0.32529510830106123 0.05245409328255777 0.2278172797048416 -0.13712780068987757
0.027897633583750355 -0.10546519310887281 0.06356947477217026 0.06240638549075093 -0.04021026050320585 -0.2616223457712035 0.007053085490426209 -0.2111108687746616
0.09057595962996993 0.06688482975888994 0.13842391620413055 0.2366122642707763 -0.007260318801502676 0.05795038299912275 -0.099496587125185 -0.11861384052946448
0.11859359531817529 0.002656076905958359 -0.039423666372652925 -0.11359905818636915 -0.27166283952491366 0.12455974653157642 -0.13024987014355355 0.03392077956633424
0.02321352630941324 -0.003605415222649218 -0.02905520542748207 0.1753707872473719 -0.06093211670821128 0.010144304262325377 0.0883539775822674 0.33521948827314035

b f8 [1, 50, 1]
00000000: c617 b5f3 fba2 a8bf 7f94 94d1 015a a4bf
00000010: 3f9a 1e15 555f a7bf 8a30 3d3d 7dfb a3bf
00000020: 0341 adfd 4855 91bf 6382 af8b b260 a23f
00000030: bad0 fa29 64b3 ab3f e6b9 5164 4e6c b03f
00000040: baf6 2149 3f1c a53f 9bd1 4a2f 32d6 a4bf
00000050: 0c56 9e40 eb20 823f 6fbe 6ce4 0cc3 a5bf
00000060: fd0f a3c6 1fea acbf 86fa cc2f 9564 a0bf
00000070: d464 88c0 1e49 b0bf 715e 4a79 247c a13f
00000080: ba71 7d31 d10e b13f ae76 62c6 0596 ab3f
00000090: 165f f492 c120 a13f fdbd cf3e 9693 b03f
000000a0: 0007 1603 7dbe b4bf c1cf 2271 8213 ac3f
000000b0: 4766 8285 46f0 aabf 6380 dec0 7bdd a93f
000000c0: 2c9b 0356 6051 b13f 811c a6c5 c728 833f
000000d0: 9e05 f5d8 fe8f b4bf cb46 e186 47c1 b2bf
000000e0: 8550 381e 9a62 aa3f f8a3 3659 e75c b03f
000000f0: cc7d dcac 5989 a73f 3e66 214a 200a 9ebf
00000100: 023f 88ff 5db6 8b3f 183c 7762 e0d5 af3f
00000110: cdd5 9a9c 74e9 a0bf bfc9 a2ba 0fba b03f
00000120: 2f16 846e a36d a33f 4f4a ee07 982e a8bf
00000130: bbed 7fd0 c199 87bf 39b3 3cbc 8b73 aebf
00000140: d35f 0315 7c95 b03f 0bfe 877b 0975 a93f
00000150: 06c6 4485 aefb a93f ccfd 3d82 846a ab3f
00000160: cf4d 56d1 859f a93f a2ad ba3c 754c a13f
00000170: bfe7 48b6 6ce6 aa3f 958c 6adb a2b7 a3bf
00000180: 5c5f 4bb0 7ac2 af3f 83a5 891f 8962 a0bf
-0.048118470668256516 -0.03974919970850354 -0.04564920313650988 -0.039028085446802654 -0.01692689941711568 0.03589399294992714 0.054103021740418325 0.06415262173843636
0.041231134106948855 -0.04069668605135065 0.00885185042333616 -0.04250374115360677 -0.05647372531669246 -0.03201738556389437 -0.06361572456843884 0.034150256925553964
0.06663234194042547 0.05387895628630922 0.03345303458098507 0.06475199731334409 -0.08103162122099761 0.05483634596876597 -0.05261440639260378 0.0505179093299837
0.06764795398667606 0.009355126113190561 -0.08032219692997564 -0.07326170962303562 0.05153352373977874 0.06391759803831565 0.045969774581176986 -0.0293355031247755
0.013531431542133546 0.062178623218294315 -0.033031124226379306 0.06533907228985124 0.0379458496482069 -0.04723048302470955 -0.011523737121016056 -0.05947529480758935
0.06478095543877709 0.04972104676198449 0.05074830414595159 0.053547039889049936 0.05004518680939506 0.03378645292590511 0.05253925061374742 -0.03851040771885398
0.062030633945765884 -0.032001767253698986

Wx f8 [100, 100]
00000000: a25d 61cf 5eec c1bf a1fd fe01 4618 c13f
00000010: a4dd 7fee dd24 d3bf 2018 a9b4 c6a1 cb3f
00000020: aeff e9e0 9fa8 c7bf 1205 afa0 5018 833f
00000030: 5cbf 4474 6b5d c13f d6fe 72d8 d6c1 99bf
00000040: 968d 605d 9d21 b93f 6bf8 546e cd03 aabf
00000050: e38c e7bd 5c8f abbf 93b1 c951 f2ff c53f
00000060: 181d 54af 330a a9bf eb4b 3bcd 6480 ca3f
00000070: 0a74 a364 7cb3 be3f ba88 1132 ef7b b5bf
00000080: 8651 d02c c8b6 c1bf 10e2 077e 5e90 c2bf
00000090: 11ba 0281 69f2 c6bf c3f0 14b2 2e09 ae3f
000000a0: 6c3d 8601 2a28 84bf 4f1d c4da 6489 c13f
000000b0: febd 6577 c6f1 b73f f2de 6107 ea4f 9d3f
000000c0: a44b 3f6c d76f c5bf a964 5808 44f0 bdbf
000000d0: eb05 1b93 8a39 b7bf 2979 5267 b85a 83bf
000000e0: 824c f782 0f99 c63f 789d c643 51e8 a5bf
000000f0: e6b1 7caf d441 bdbf 56a0 2acc 8384 a1bf
00000100: 4dd3 6e5d 7bd0 a93f d8fc 80cb ee0d ad3f
00000110: e599 e5b9 355c b33f e204 d682 b170 a7bf
00000120: 35e5 2f22 be97 c83f 6f30 f572 65bb c2bf
00000130: aaa8 8d7e c0c5 b73f 371e 4629 89d6 b6bf
00000140: be96 7727 c7e3 cfbf 7c81 deaa b1a1 c6bf
00000150: 1fa4 0af6 e9c8 c23f 8a17 dea1 4ae0 9cbf
00000160: cfd0 de90 e06e bcbf 6b90 b6e9 ea5c c03f
00000170: 3341 9706 f19b cc3f 054b 87ec 9ff2 c2bf
00000180: 566d 05a5 58a4 a1bf 7e1d 8339 29a1 c5bf
00000190: d5d1 5cb3 9ab1 9f3f f7ba 1368 f9cd b03f
000001a0: b7c2 9cb4 7d7d c8bf a839 8d1a cdd1 c5bf
000001b0: cea0 5c78 d373 bb3f 8b49 13e9 d7ad bebf
000001c0: 440e 976f b650 c53f 1850 94ea 47ef c3bf
000001d0: 5504 cf56 d0d9 c83f 5ea3 2f7d cafa 80bf
000001e0: 479d 763e ec8f b5bf ef40 6943 2cf9 b9bf
000001f0: 5f88 c1e2 8756 b3bf de3b 03bb 6836 c5bf
00000200: 190e 7c60 c0e4 873f 6b08 5f87 543a a83f
00000210: c671 533a eb67 b53f 2cbb b259 3e83 a7bf
00000220: eb0f 7142 338e a0bf 6f16 f63f 7c4a bd3f
00000230: 6b79 8333 5516 aebf f223 9577 05cc d1bf
00000240: ffa6 f38a f682 893f 131d e83d 7213 963f
00000250: 614d 65cf 2907 c83f 71b3 a287 3fd2 cabf
00000260: 7c7c 2ac3 a36e 9fbf 2338 63f7 e4dc 53bf
00000270: 5999 dcc2 513d 9bbf 44f7 db00 3617 513f
00000280: 97cf 9ea7 6edd b2bf e373 8f2a cf92 b4bf
00000290: 9919 de47 c877 803f c5d2 dbe9 666d c13f
000002a0: 6261 0cb7 aaab 94bf 4ac9 1561 03f8 a7bf
000002b0: 379c adb8 a2ba a8bf 0dec 67f7 ae70 cdbf
000002c0: cd7e a12e 3d11 c43f 5000 cc25 98a7 b73f
000002d0: 0650 1a45 dd57 86bf bb54 c7ca addf c03f
000002e0: ce59 c9c3 6c8f a6bf 7f41 dcec 70f4 a4bf
000002f0: bbe5 3b43 ad58 b1bf 5709 7d21 bdb6 a93f
00000300: 856e b70b 4dc5 a2bf 5359 b926 e7d2 b9bf
00000310: ec44 0a28 a625 9fbf ada4 5eff 7542 c63f
00000320: bcea f47c c723 c5bf d818 9a35 2b03 c03f
00000330: 5fef d20f bf93 c7bf 124f 2344 6ccc 9a3f
00000340: e762 bf2d 937e 96bf e236 010d 0275 b13f
00000350: e95a 0ac4 ce2e c93f 8274 7c93 858a d4bf
00000360: a599 0191 c0bc b8bf 4e89 89e0 ae55 c2bf
00000370: d7b4 17c7 aea8 c3bf d822 f764 b099 b73f
00000380: a4dc d823 b024 90bf 46f6 afa9 8d52 c5bf
00000390: cbe0 1b6b 8f3f c73f 07a5 de60 2df1 c13f
000003a0: 4a81 9a14 0366 c33f 9c68 3879 a446 aabf
000003b0: 9cd0 4adc 40c6 c73f b6bd 560d b1e7 803f
000003c0: 7cd4 20d0 dc71 93bf 2f58 1325 e69e b3bf
000003d0: bc3a a5e4 df3e b2bf d6a8 d571 9b2f 773f
000003e0: 91dd d32d 51b6 c53f 1ca2 e99e a247 c63f
000003f0: 5c13 6c00 eff0 c2bf d4dc 0948 0f73 aa3f
00000400: 080d 4c32 03fa c83f 0ed7 0f6d 0479 9abf
00000410: bba9 d834 0237 b03f 690d 67d6 463a a83f
00000420: a5aa e304 edc0 a33f 43b6 8eeb df1c abbf
00000430: 3983 95ec f615 be3f eab7 5a5f dbca a33f
00000440: 15e4 3a92 1e9c c2bf 2993 5d88 bf21 cdbf
00000450: 2fab 363c 488a d7bf 4caf 2859 1cc3 c03f
00000460: f054 7bec bc35 b93f d060 6284 1820 c6bf
00000470: 8844 e90b 3156 abbf 3f7a 9bdc 2737 b63f
00000480: a386 0834 cda2 c0bf a36f 1de3 8e05 be3f
00000490: 9dca 31ab c521 cc3f cde0 1520 3303 b33f
000004a0: 8603 1c22 2b44 da3f f790 e589 66f8 8cbf
000004b0: c2de b45d 99e0 c73f 5bf4 f6de 93bc c8bf
000004c0: a798 ea09 75a6 cdbf b06e f2eb b740 a33f
000004d0: ac2c a671 62df c1bf c7d7 e078 b163 a43f
000004e0: fdcc dacf 9c9c 9dbf 20d6 670b b88a 923f
000004f0: 13e2 fa2c 674e c73f d420 71ac 2975 ccbf
00000500: 2d20 f6ab 289d cfbf 35c3 f94d 6262 b1bf
00000510: dd82 6960 2771 633f 5bec 8f52 17ef 8d3f
00000520: 3a0f 689c a6bd c23f 130c 290c ccf3 6dbf
00000530: 3e18 2811 9058 b4bf a4bc 1c03 e456 d53f
00000540: a9f0 ff1c f93a b3bf 3b2b 2125 58e9 c2bf
00000550: ac5e e0bf c50c c1bf b558 b7f0 ade8 943f
00000560: 79f0 7bb6 b350 b33f eef6 be94 a8cd a33f
00000570: b827 b06a 2508 b73f 10d9 a119 eaaf a5bf
00000580: 0116 c072 eed0 a33f d6b9 796c 8b0b c4bf
00000590: 79ee 549a 730d a03f 5df3 9193 8d44 a13f
000005a0: 767f de0d bc20 a4bf b75c 1977 a449 c23f
000005b0: ef9f 18b3 97a5 b13f 0025 065c d6d5 c43f
000005c0: be7c 681d f46e 9bbf 4faf 48d3 7814 88bf
000005d0: 51db 5faa a48b c53f 1499 35ee 38e3 bc3f
000005e0: fd8a 53b5 e166 b53f 95f7 e0c6 7a56 acbf
000005f0: 4ac0 a998 c13d c43f 9929 68ea 03ca b8bf
00000600: 7896 6cf9 493f 943f eb95 d3b3 728f c43f
00000610: 8fac 49b2 5caa c3bf 684b 29a9 f2e8 b63f
00000620: b355 e379 649e a83f 57ff ab6e 758a c2bf
00000630: 6bc6 60fa 9ee1 84bf 510a 6931 46f6 bb3f
00000640: 243d 7861 281e c03f e8e6 3546 09f2 c63f
00000650: fde5 7cb4 71ad d2bf ea09 d3c6 ca8c ccbf
00000660: d5fc eb15 5f3b 813f 1dbc 1868 7c65 9ebf
00000670: f679 1916 8e3d bebf 250e 2037 f283 c43f
00000680: 961d 9c99 554d ba3f b683 4c8a 3573 ac3f
00000690: 74b1 6b2c 7266 b43f d33a 4090 a312 b83f
000006a0: a625 f9fa 4308 d1bf b6cc fd14 48a1 cdbf
000006b0: e3d4 dfd2 5373 87bf 04fc 9507 8854 b0bf
000006c0: 49d6 9475 b2ae a9bf 8d61 6ffd 3f2d b5bf
000006d0: e526 b5c0 be79 a43f f414 d822 56e9 ba3f
000006e0: 335e 1f76 d542 d2bf 7d36 f16c 4c29 c9bf
000006f0: b1bd 4c06 0047 d33f c0bc e1fc 8a4b c33f
00000700: b750 e76a c9c8 d2bf 5791 3431 6d80 98bf
00000710: 024a 5dfb 63e7 a43f 3df5 1063 9d53 b5bf
00000720: 8908 686e 11be 953f 04ee 6e06 323c b9bf
00000730: c16e b5da 2a6f a0bf 964b 3731 f71e af3f
00000740: cb9f 962c 43ba 93bf 1433 0da5 f210 c93f
00000750: 06c4 79e2 fcf5 793f 5d77 5ff0 f988 8e3f
00000760: d7f6 c478 2f2a b9bf 5364 27f7 71a5 b4bf
00000770: 97c3 de36 62f1 c83f 4f31 2854 0e06 c03f
00000780: 0625 5d7c 1c61 b73f 7696 ed17 6e49 aa3f
00000790: 0fbf 7081 d3fc 743f 0b6c 8aab a955 a2bf
000007a0: a1a1 44ac e773 c33f 73cc 27f9 4bfe a13f
000007b0: 9f12 682b d215 c8bf 2645 c70d 8f8f c43f
000007c0: 7886 ef06 be53 b03f bb00 a27d 413a c2bf
000007d0: 34f5 18be d20a d1bf 0a6e 5cde 154d c2bf
000007e0: 5adc 8ce6 4d1e a0bf 66b0 7ded 1102 c2bf
000007f0: 6849 97f7 7f43 9bbf d4aa 69a2 9fc3 c7bf
-0.14002595067971152 0.1335532674547553 -0.2991251782509272 0.2158745176440684 -0.18483351213580818 0.009323720840145575 0.13566344430136723 -0.025153500519762804
0.0981691697093566 -0.050810260504008685 -0.053828142339421146 0.17187336915538917 -0.04890595927468605 0.20704326649737878 0.1199262376498639 -0.08392233822226816
-0.13839056194468585 -0.14503079561087917 -0.17927283095691895 0.058663806189060995 -0.009842231914062714 0.13700543100297088 0.09353294768310857 0.028625160885410623
-0.16747563157568124 -0.11694741443388303 -0.0907217606682235 -0.009450379040853623 0.17654603857826962 -0.04278806640950966 -0.11428574833252689 -0.03421413295046764
0.05041871562517617 0.056746923772601654 0.0756257609224132 -0.045781657429879066 0.19213081998149453 -0.14634388077900293 0.09286120500260844 -0.08921105630553759
-0.24913873126131664 -0.17680950968953002 0.14675640596149805 -0.028199354295359615 -0.11106685196756703 0.12783562099241705 0.22350895711725513 -0.148029318325449
-0.034456987518491175 -0.16898074444018713 0.030950944135115527 0.06564291754669314 -0.19132968253099644 -0.17046512409656356 0.10723611534615715 -0.11984013977352086
0.1665256543038699 -0.15573977426595387 0.19414715040878386 -0.008290845818878342 -0.08422733807548353 -0.10145832677631338 -0.07553910528216211 -0.16572293406940636
0.011666777557827012 0.047320024037177465 0.08361692594502931 -0.04592318386982294 -0.03233490167670524 0.1144178062587231 -0.05876413587405945 -0.27807747533785154
0.012456823459121134 0.021558556583866805 0.1877186072039008 -0.20954126475171678 -0.030695494448647484 -0.0012123332976901123 -0.026601102369704453 0.0010431315781142684
-0.07369128792089295 -0.08036513127395 0.00804096669504588 0.1361511842620954 -0.020186107084641754 -0.046814065552910636 -0.04829891685840731 -0.23000132637375295
0.15677609230896508 0.0924010364797152 -0.010909775420522305 0.13182613755512826 -0.04406299486133812 -0.040927437699909135 -0.06775935069517562 0.050222311342184404
-0.03666153686546373 -0.10087437339220644 -0.030417057222227692 0.1739032265589108 -0.16515439607049653 0.1250967036941748 -0.18419636032728712 0.026170436533745685
-0.0219672199890252 0.0681916505575049 0.19674095699584562 -0.320954698590704 -0.09663013019744555 -0.14323984111531235 -0.1535852882510997 0.09218885865187632
-0.01576495379250943 -0.16658182893290724 0.18162720422674847 0.1401726458546266 0.15155066019088742 -0.0513202093099647 0.18573771244485193 0.008254416675156456
-0.018989038661136423 -0.07664335637250085 -0.07127188999332196 0.0056606361443789135 0.16962637651134263 0.174061133951242 -0.14797770996679105 0.05165908579231773
0.1951297755805188 -0.025852269322022052 0.06333936491197438 0.04731961600512131 0.038581282469597945 -0.05295467138726597 0.11752265239694006 0.03865705050462494
-0.14538938655985648 -0.22759241255257592 -0.3678150737784333 0.13095430711234213 0.09847622655373178 -0.172854485169188 -0.053391964630130906 0.08677910934373133
-0.12996830979050342 0.11727231068419867 0.21978064402681677 0.07426757367454968 0.4104106743907824 -0.014145661433481822 0.18654172015680187 -0.1932549322790774
-0.2316423700733072 0.03760313754284306 -0.1396296553542461 0.039823099141741695 -0.028917741953319077 0.018107295700209858 0.18208017059602408 -0.22232552452101706
-0.24698360821298718 -0.06790747073843025 0.0023732918810285123 0.014616186339472195 0.14641268384013434 -0.0036562905600319245 -0.07947636050093451 0.33342838577204703
-0.07511860807420824 -0.14774610341040692 -0.1332022845169737 0.020418851678038325 0.07545016484431412 0.038678424985375645 0.0899680505246171 -0.04235774577039042
0.03870339537392554 -0.15660231396345975 0.031352627362562786 0.03372614313500464 -0.0393122450761884 0.14287238898643803 0.06893299219575487 0.16277579778060414
-0.02679044179432987 -0.011757797191499412 0.1683240730196425 0.11284213843973517 0.08360109974777781 -0.05534728696555572 0.15813465074779948 -0.09683250878166517
0.019772678230899093 0.1606276872691262 -0.15363653855761014 0.0894920027724716 0.04808343875781009 -0.14485042480373053 -0.010195962921076792 0.10922659593874441
0.12592034110319006 0.1792613594841932 -0.2918361914231296 -0.22304663379880135 0.008414023262501772 -0.029684013227036943 -0.11812675513781543 0.16027667705212525
0.10274252891769317 0.055566475994289474 0.07968820175637409 0.09403440734625272 -0.2661294890318352 -0.23148442292185728 -0.011450438378214084 -0.06378984627916401
-0.05016095815009842 -0.08272170960788668 0.039991341613655064 0.10512293196378036 -0.28532921348002843 -0.1965728313393135 0.3012085019608675 0.15074288699859117
-0.29350505294611245 -0.023927408340698033 0.04082786982930388 -0.08330711048707413 0.02123286472670619 -0.09857475907386265 -0.0320981399515552 0.0607831237390634
-0.019265222164591294 0.1958297067561935 0.006338107901329165 0.014909699104403701 -0.0982999486777446 -0.08064949306516782 0.1948664443894159 0.12518481358746178
0.09132555042483056 0.05134147684183869 0.005123926347593301 -0.03580980509760686 0.15197463904884237 0.035143255390630034 -0.18816592330417323 0.16063106701634772
0.06377780598952565 -0.1424028266374132 -0.26628559650619654 -0.14297746045564025 -0.031481203454341425 -0.14068817230452452 -0.026624679075959362 -0.1856574576407498

Wa f8 [100, 50]
00000000: 6c29 c8aa 3478 cfbf 3159 87e0 8c4a b8bf
00000010: 3c9d 2e56 909c 99bf 4321 3a81 705e bbbf
00000020: 8098 9223 5f08 d0bf 4fe1 e8a8 750c b0bf
00000030: b71d 9760 31b2 b93f 849a a463 d5eb babf
00000040: 854f f687 9fc3 c2bf 2772 075d 3dd9 b23f
00000050: 3f22 d482 7c23 843f b9c6 9ea8 d160 a93f
00000060: 6591 a989 d1b4 97bf 248e 1cdc 6050 b4bf
00000070: 451b a037 2187 d83f 6e9a 7736 a71b b0bf
00000080: 4250 b6e3 94dc a73f 2e02 58b0 fe5c ce3f
00000090: 652b 1a01 b107 c43f 648c 00f7 90fc ccbf
000000a0: fb6e 0316 a216 78bf 25d8 7986 a59f c33f
000000b0: 5fed 391d 0d45 c23f cef9 d73c fc65 ba3f
000000c0: 8015 e1fc 134e d83f 926f 03f7 98b4 c13f
000000d0: 8129 3560 3333 8cbf c012 4873 dd83 d5bf
000000e0: 458b 5195 78ae c23f 8224 1440 78e8 b43f
000000f0: 81d2 8b47 bc21 b13f 01d0 4122 fa40 953f
00000100: bc54 13bf 44db b1bf 6d48 5c47 30db af3f
00000110: e7cf 61d9 b7b9 a43f 3cf9 e2ac d7fd 893f
00000120: d42c 364b ad27 abbf ebe9 2b15 a03f b7bf
00000130: 988d 4d8d 2946 b5bf a23c 8010 80f8 c23f
00000140: c93d b153 e141 c13f 359d 54c0 ade7 cbbf
00000150: a8eb d0a1 475a b13f b7b1 a816 24b3 ac3f
00000160: e7e1 993e 1e77 cb3f d442 d597 b625 b5bf
00000170: 30ce bc55 1d4d be3f 1068 ad96 7b5a 9f3f
00000180: 51fb 3033 f06c 963f 2caa 7df4 67f0 ca3f
00000190: 7968 57b2 b164 c4bf 4040 e05f 89e7 75bf
000001a0: 7686 644a d588 bc3f e610 ffbf d807 c43f
000001b0: af95 1aef c1b5 b53f ddc0 bf37 6020 c53f
000001c0: e8ef 9802 3720 b9bf 542c 69ff 2711 c4bf
000001d0: 0f90 67be 3421 8bbf 474a 375c 15dc bf3f
000001e0: a6de feb8 6427 d3bf bf62 7b9b ca73 c2bf
000001f0: 62d5 35b5 d28c c3bf b422 9234 d295 a13f
00000200: a6b4 e3c9 e2ae acbf 43e7 6618 3f05 b7bf
00000210: 3245 36c3 04ee bc3f ca38 7b12 e3ce c73f
00000220: 5dd1 b7a1 c1c2 c13f 237a ad56 7896 d43f
00000230: b937 c667 c0f3 b1bf 90a6 5ce9 3fd6 c7bf
00000240: 0124 dd2e 0aaa b83f d1ad af6d 30da ca3f
00000250: d5d0 760c 6152 ccbf 15c0 552d 6d51 babf
00000260: 26aa 8f24 93d1 8b3f 0209 e476 66e3 b1bf
00000270: e585 8220 1457 c63f f8de aa8e 8926 b2bf
00000280: 6aff aa6c 71cb cabf be52 9863 8d9c c6bf
00000290: 5e06 7fa5 a254 cf3f 3e6f 91db 3c7b c03f
000002a0: d76a 51f5 ed60 c0bf 289c b2fa 6ce9 c9bf
000002b0: 8d43 4f9c 8885 ab3f 1462 e6be ab25 c7bf
000002c0: 97e2 97ee 6892 a6bf 7df6 1f9d 3b2d a4bf
000002d0: 13c5 d83e adb2 d03f 5af7 f13b 6e1e d3bf
000002e0: b423 411f bbd1 603f e204 0830 ae91 cf3f
000002f0: 49ad 1ffb f72c bdbf 13ac 4ab7 a040 98bf
00000300: 76dc 4e4c 0a8c 96bf 6c96 ba1c 3f55 d7bf
00000310: 88ef 19d3 bb3d 773f 8c62 43fb 3037 c5bf
00000320: 9d27 8c5d 76e1 c3bf d9eb e46c 3590 a03f
00000330: 55e8 f880 77d8 cebf 260f ca31 e0c5 a0bf
00000340: e2d7 4e1d 3c2b b93f fe78 a4d6 c830 ca3f
00000350: 8fd3 2c0a 41f3 b7bf 7ea2 7770 6085 c33f
00000360: 4676 3243 b78d 7ebf a481 da3c 6947 b2bf
00000370: ae24 ac04 10f9 ce3f c19a 8edf 6091 c23f
00000380: 2951 18fc 4678 8f3f fde9 3b30 48f7 c7bf
00000390: 398b 721a dabb c53f 3602 7beb 45e7 b83f
000003a0: 51ec 6f00 e694 a03f 5e56 63c5 f30a bcbf
000003b0: 1558 77e1 0dfb bcbf 09f4 d559 02cc d1bf
000003c0: 2b9a 365f fd60 ac3f 11e3 34c1 9692 cdbf
000003d0: 39c4 f00f de8d cd3f ae86 9de7 5f27 883f
000003e0: e46b a9df 0fd6 95bf 25bd b426 5199 b5bf
000003f0: 8908 0aec 2828 bc3f 37ff e72a f520 c6bf
00000400: cb5c 9493 6c73 a3bf 4498 7ded 629a c53f
00000410: 1631 be53 6e90 76bf 5c52 60ff b3fb c5bf
00000420: 90ce 6798 652c a83f 2014 32eb 150c bc3f
00000430: 9dac 50d8 58b9 c13f b46e 9988 0e52 c13f
00000440: 81a6 cfbb 7f84 b0bf 103b e5e4 68f5 b63f
00000450: 67a9 12df 96a3 d23f a260 928a 39a4 c83f
00000460: ddbb 258a 264b d33f ae86 fa7b 7116 b33f
00000470: b7a2 8f6a fa9b 75bf 0e76 12be a2a8 df3f
00000480: f319 443c dc2f adbf 9215 4a2b 991f b73f
00000490: 50d2 2303 009f c7bf 3a69 6ed5 ec0f b13f
000004a0: 5b3e f612 2b01 a23f 0d28 3de1 8f3f c4bf
000004b0: 137e 0b36 6ec5 d1bf 1f9a a830 e2c8 d13f
000004c0: f8e2 1669 ae37 943f 69d9 8307 4539 a83f
000004d0: 99b3 9f3c ce8f cb3f d4bb 7238 1e08 b23f
000004e0: cd36 892c 0714 b43f 8c3d ba0c 8a6e b63f
000004f0: d57e 5fa1 ee5e b4bf 1d98 9165 3ae3 bdbf
00000500: 9f77 0eb9 6f47 9bbf f44f f391 e4a3 72bf
00000510: dac1 7f2a 57ae b2bf b665 fb03 804e c0bf
00000520: ff66 e86c 4a60 96bf df18 3beb d8f0 c53f
00000530: 8820 ce5e 522c a03f d805 ed25 fb2a bf3f
00000540: c9ea 80ee 5694 c43f 7f38 212c dd0b cbbf
00000550: ef53 a1c8 6dd8 943f 39ee b344 8d95 b3bf
00000560: fd5a 88b7 0602 babf aa29 6ea8 f7a2 be3f
00000570: d870 41f8 85ed 74bf 3c63 d880 fd08 c6bf
00000580: d7a1 3dd9 95f1 993f 5d33 75bc 382a b53f
00000590: 4159 d80f 1db8 933f aa5d f845 b0b5 ba3f
000005a0: 032a 9725 67b0 b9bf 24e7 0aff cce6 d3bf
000005b0: 1506 44f3 dfc6 6f3f 0acd cf2b 9f38 c3bf
000005c0: f1b1 02d6 cb01 d93f c0a8 696f 14df d4bf
000005d0: cb8b 1922 ee7e a03f f932 8868 fe36 c3bf
000005e0: 0bf3 2a2b 8e4a b8bf 0714 ade0 589b c03f
000005f0: 08de 6870 a5b0 c3bf 7bcd fce4 1492 a03f
00000600: 2521 afb1 fcd9 613f c803 9ee9 24ff c13f
00000610: cf49 8413 0302 ca3f af61 8d0b 9405 c7bf
00000620: 8fb0 12ba 7031 b0bf 9262 9172 cdd6 a4bf
00000630: de3e cb5f 372f c23f 09b9 a629 963a c43f
00000640: 4a95 cee2 d6db c83f c21f 265f f0f8 b7bf
00000650: d163 83b9 473b b4bf d065 c192 a9d7 b23f
00000660: df76 c92e d936 cebf 2f3d 7b18 7ff5 d0bf
00000670: b044 5dd1 29c4 cabf 4e67 e580 7330 bebf
00000680: 838b e1c9 745b b13f 70de 5165 8608 b8bf
00000690: 6c20 0a9e 479f c2bf 8e75 56b5 0e2b a0bf
000006a0: 95d2 44ac 99cb d4bf 3ebd ad94 2bdf c13f
000006b0: c0e1 f79c 3cae 95bf e7d0 d2c8 fe7b c5bf
000006c0: 01f2 7ef0 495f bebf d9dc a29f 9c9d c6bf
000006d0: c3cc cd77 a3c8 d1bf 9082 6d36 7985 c2bf
000006e0: cc79 db30 12e9 a83f b9ec 6450 6a38 b3bf
000006f0: 87c0 8195 b68e d33f c8cf 92f8 a68d c73f
00000700: 8255 d2b7 80b1 b2bf 7b92 5782 01f2 b4bf
00000710: d8df b163 0eb3 d03f f206 b5b7 4860 c23f
00000720: 6c1f 23e5 0b0d c2bf c541 ce90 4762 c4bf
00000730: 584d 887c 698e aa3f 1d14 018f 8cc9 90bf
00000740: 61cf a899 e171 abbf 4d31 5efe 860f 84bf
00000750: c576 6998 6500 c8bf aefa 252e 1747 b73f
00000760: 5f92 d0cc 207b c0bf 0d79 85db 300b be3f
00000770: c941 e616 b781 c6bf 5b1c 83fb 054c 95bf
00000780: 5ae4 2b45 ea98 d63f 74d1 ce4d b67e c23f
00000790: 69d2 13f8 3708 bdbf 95ce 8d1a bf8e afbf
000007a0: 9000 92b6 0a6c c43f 12cb d743 7dd8 c43f
000007b0: e3ff 5e6e ce4d d6bf bbac df2b 24d7 c63f
000007c0: 6fb9 38ca 2aa8 74bf ea54 e0ac c76a 833f
000007d0: 4138 db3b 7a3c af3f c381 1954 b40f c7bf
000007e0: 9e0a ad90 700c 883f fc0d 51f0 2fbd 26bf
000007f0: a44f b2a3 4ff1 ae3f 2bff ad19 5a11 b73f
-0.24585588778456768 -0.09488754731805639 -0.025011306057107094 -0.10690978198011174 -0.2505109641446168 -0.06269011853954008 0.10037525756990005 -0.10516103441896446
-0.14659494532372377 0.07362731476991567 0.009833309881757233 0.04956679519035618 -0.023150705363506847 -0.07935147641961088 0.3832476657120661 -0.06292195396199826
0.04660477904977302 0.23721297846351902 0.15648472360438884 -0.2264577108445308 -0.005880959652326596 0.1533095270748969 0.1427322762209355 0.10311867223206336
0.3797655076526425 0.1383238988990994 -0.013769532559895438 -0.33617340333902845 0.1459494332403556 0.08167220653935384 0.0669210123704236 0.020755680409322966
-0.0697520224087666 0.06221915122127162 0.040479417119882836 0.012691197360592647 -0.053037085944276946 -0.0908145953834844 -0.08310184192446568 0.14820862584790456
0.1348230036405609 -0.21800777331484658 0.0677838106211498 0.05605423714255003 0.21457269722647185 -0.0826067085920486 0.11836417525483323 0.030618601867310302
0.02189994156310188 0.21046161115676065 -0.15932294090345403 -0.005347763652039872 0.11146290842273196 0.1564894616586862 0.08480465018745663 0.16505053255196503
-0.09814781011021945 -0.1567735669253546 -0.013246929226575358 0.1244519567619956 -0.2992793852422245 -0.14415867416280112 -0.15273507927092128 0.03434616939290916
-0.05602177347632535 -0.08992380471945886 0.11300687566678816 0.1860011902085204 0.13875599285496323 0.3216839643918396 -0.07012560399581859 -0.18622588057160216
0.0963446010984086 0.20978360515378694 -0.22126401051139646 -0.10280496937571144 0.013583325913676236 -0.06987610247236734 0.1745324286212472 -0.07090053303806687
-0.2093335896115563 -0.1766525970748684 0.24477036553257653 0.12876091691111385 -0.1279580543367362 -0.20243608704660798 0.05375315578533622 -0.18083712407384722
-0.04408576881900677 -0.03940759938266767 0.2609055627572882 -0.29873233655950104 0.0020531325081134203 0.24663331361083524 -0.11396741753531105 -0.023684035479771447
-0.022018586070512623 -0.36457803540756717 0.005674108209514979 -0.16574680584632906 -0.1553180653357317 0.03235022501254265 -0.2409810428378615 -0.03275967223910774
0.09831596103217025 0.2046137855585996 -0.09355551241317371 0.15250783435410037 -0.007459369534584653 -0.07140214667970796 0.24197578647752976 0.14506159702178503
0.015366129463509086 -0.1872339473264474 0.16979528705004457 0.09727894782100396 0.03238600497567091 -0.10954211777728903 -0.1132057834105072 -0.2780767323782248
0.055427472946849875 -0.23103603776851192 0.23089195040077629 0.011793851142729874 -0.02132439425109202 -0.08437068171473479 0.10998779070544819 -0.17288078875571397
-0.03798999120243137 0.16877400013180666 -0.005508833852115444 -0.17174386949104103 0.04721372113627098 0.10955941192703778 0.13846884310018917 0.13531667394533076
-0.06452177367432378 0.08968215549724001 0.29123470100844034 0.1925117422695211 0.30146182528454607 0.07456120755025594 -0.005275705517285337 0.4946677070782649
-0.05700577006978227 0.09032590205068505 -0.18453979638401785 0.06664924822544985 0.03516516310184833 -0.15818975923531334 -0.2776752021581796 0.27788595916573117
0.01974365726866531 0.047311932723391355 0.21532609901569513 0.070436371594709 0.07843060338310721 0.0876241952012064 -0.07957354964991777 -0.11674847583489663
-0.026639695806458637 -0.00455083165362068 -0.07297272479605202 -0.1273956317370854 -0.021851694962697895 0.17141257749444258 0.031588148186586784 0.12174958873676844
0.16077696462328664 -0.21129955916189044 0.020356860514159022 -0.07650072982135549 -0.10159341793801598 0.11967418539112509 -0.005109332389192832 -0.17214936057350794
0.025335637459109463 0.08267550087948679 0.019257024852856523 0.10433484752899483 -0.10034794490562864 -0.31096196085455774 0.003879010584683549 -0.15016545905346163
0.39073463344064324 -0.32611571197652367 0.03221840063340372 -0.15011577705481452 -0.09488762430096302 0.1297408196498113 -0.15382831562759258 0.03236451430566497
0.002179139655229661 0.14059888274280596 0.20318640187231415 -0.17985773624492427 -0.06325439970777523 -0.04070131324323713 0.14206592729032413 0.1580379203200624
0.19420896601256238 -0.09364225695583087 -0.07902954367763405 0.0736032470025727 -0.23604883942146324 -0.26498391524087855 -0.2091114303862347 -0.11792680642011286
0.06780176094757277 -0.09388008092525424 -0.14548583237433677 -0.03157850230784752 -0.3249267751992105 0.13962311515522602 -0.021172473030647287 -0.16784653478465048
-0.11864149209481668 -0.1766849307511851 -0.27787100505447543 -0.1446982875595677 0.0486531910553257 -0.07507957899808816 0.30558552360799535 0.1840103830087385
-0.07302097785789921 -0.08181771690539989 0.26092872367689557 0.14356335611414967 -0.14102314651813275 -0.15924925394621262 0.051867767764771144 -0.016393848636898512
-0.053603219992878655 -0.009795241010373568 -0.1875121111105981 0.09092850567501884 -0.12875757218093306 0.11735825881394053 -0.1758335935414961 -0.020797818637927495
0.3530831981184456 0.14449194716656744 -0.1134066563279902 -0.06163594435829826 0.15954717554632625 0.16285672962802572 -0.3484989240496345 0.17844059126159614
-0.0050431891900600675 0.009481010401979312 0.061008281523399883 -0.18016676050593902 0.01174247685924473 -0.00017348489942224643 0.060434807522283834 0.0901085198111075

ba f8 [100, 1]
00000000: 168a d7d1 fbf6 993f 9427 5709 e2f7 613f
00000010: d0d5 0d31 b454 a03f 3d47 0d52 0817 863f
00000020: 5df7 ce67 bb37 71bf 6886 5388 559a 8cbf
00000030: 3e47 7aad 3257 963f 7957 239d ae7d 823f
00000040: 0db1 fcd6 5f7e 64bf 8bf8 3b63 8891 803f
00000050: fcf8 4039 1240 94bf 89da 4330 4557 9d3f
00000060: a976 b3e3 236e 9e3f 7bfe 2568 4f8b a03f
00000070: 1c23 a508 9772 a23f 29f7 dbb7 eebe 56bf
00000080: 3b34 7a04 68db 9a3f 2f0d a4d8 8fe9 a1bf
00000090: 83aa cb86 4e9c 9bbf 312a 25be 65c4 abbf
000000a0: e67c 85fc 14fd 9abf 1cd7 4da5 d221 713f
000000b0: c9ae 6862 1da4 73bf 4470 076d 1c36 91bf
000000c0: 6231 ec23 d054 8f3f d190 32eb 3cec 9c3f
000000d0: 4738 fe52 8534 503f 643e 2da6 9527 a63f
000000e0: b5e6 7b2f 15b4 963f c398 e260 6e07 9f3f
000000f0: 87c6 5ca8 002d a1bf ce46 a35f 7d49 a13f
00000100: 4ff9 e64f e5e3 903f 78d0 814a 180e 883f
00000110: 9fc5 3076 d0d7 8d3f ca4b 9a5e d033 a3bf
00000120: 1822 6d8e f349 8c3f 4490 6602 a63d 81bf
00000130: 9c0f 93e2 9a10 ab3f 52f7 84a0 f454 943f
00000140: 8df3 f2d9 ed5e 97bf 08e8 d780 0ba1 8dbf
00000150: d3f5 c453 621d 9dbf 63a7 6245 07f9 95bf
00000160: 7598 46bf 0dbd 9abf f581 182a 906c 913f
00000170: f6f6 5bfd c57c 623f e3f0 3f8d 4515 81bf
00000180: 4865 e7b1 2a15 9cbf 9e41 7df5 1ac8 a5bf
00000190: 08a5 16b9 cfd5 91bf 52c5 4741 6d5b 9ebf
000001a0: ea46 b571 c2ab 8dbf 7129 c6ba 0635 733f
000001b0: d1be 4baa eb42 8bbf cb16 5818 917c 94bf
000001c0: d1a6 41f4 d841 843f 2d3d ba10 1e19 a63f
000001d0: 25e6 cf7c ca05 683f ae15 8bc3 5cef 8fbf
000001e0: 44a3 beb4 86db 883f 76bb a3e1 4cf2 8dbf
000001f0: af32 f82a 8322 943f 7116 325e 9201 ab3f
00000200: 8020 1e2e 0747 6a3f 24cd b481 ba7b a13f
00000210: e19c 7311 a312 913f e45c 71c3 15b4 a7bf
00000220: 4a42 63a9 167b 883f 75f2 6897 6e2e 9dbf
00000230: cfbb 27da 9477 93bf 1cb9 2267 5f60 95bf
00000240: a44b 7e46 2fae aabf 55f7 f04d e30a 2f3f
00000250: a153 9c37 45c9 6b3f 7021 58b7 f3f7 9d3f
00000260: b8dd 3c9a 5c5f 933f 4aed 0d54 5c46 943f
00000270: d3c4 ec6d 3a9a a33f 5a21 f69b d6cb 803f
00000280: 5a76 4158 171e 86bf 144d 8343 3341 a0bf
00000290: 638b cffb 460c 913f f49f 98b2 322d 85bf
000002a0: bcce 88a8 35bd a33f cc19 a5e5 5b8b 8c3f
000002b0: f846 7e9b 4bf4 80bf 14b9 87d7 a010 a33f
000002c0: 9ee1 d217 afd1 a4bf 869e 04de 97b6 97bf
000002d0: 6d15 e0e1 de92 703f a4db f8a4 ca18 97bf
000002e0: efe1 9b87 bc06 8b3f 74d4 ce42 4370 a53f
000002f0: f493 1f05 e9c9 8fbf 0427 bcad 65cf 68bf
00000300: 81e8 af3b 601d 9bbf ce2c 0f86 887b 52bf
00000310: 90ba 51a3 44e8 9f3f ed18 577f 03cf 6d3f
0.025356230433212522 0.0021933951163405994 0.03189623926929708 0.010786118511223125 -0.004203540852300095 -0.013966243956420502 0.02181700881789727 0.009028782053444694
-0.0025016662474596275 0.008090081718816108 -0.01977566217851122 0.02865322215162761 0.02971702649380484 0.03231285234778355 0.036030502133661296 -0.0013882952911780744
0.026227593682552657 -0.03498506087819419 -0.026963450410145483 -0.0542327684984979 -0.026356056130109183 0.004182646593894803 -0.0047951839283474984 -0.016807979731183545
0.0152984868014065 0.028244926314656752 0.0009890844339426484 0.0432707562782724 0.022171336196129505 0.030301785148048276 -0.03354646735386973 0.03376380722478488
0.016494353296132854 0.011745633863235336 0.014571789366615571 -0.03750468401735636 0.013812926086431296 -0.008418366382848437 0.052861061246886026 0.019855329797102535
-0.022823063304474856 -0.01446732508610539 -0.028432403910519554 -0.021457780466028874 -0.026111807632013446 0.017015698022193566 0.002256762217142656 -0.00834135377225959
-0.027424494846717523 -0.042542307345345906 -0.01741718833151132 -0.02964564047755875 -0.014487761588188392 0.004689241683431753 -0.013311234602468332 -0.020006434546323597
0.009891219095340105 0.04316038088028971 0.0029324488482387495 -0.015593266217716142 0.012137462988748411 -0.014622307430242048 0.01966290426030309 0.05274636649941734
0.0032076969372987763 0.0341470988591033 0.016672656955873392 -0.046295814616934355 0.011953522724440852 -0.02849743651516908 -0.019010854544770524 -0.020875445051097605
-0.05211017356409478 0.00023683571541426954 0.003391871633434865 0.02926617437882001 0.018918463624883336 0.019799654608033714 0.03828604308945107 0.008201290735784173
-0.010799581890917388 -0.031747438422508406 0.01664839660578411 -0.010340114665339663 0.03855292970947974 0.013937681146342216 -0.008278456385400798 0.03723623877509588
-0.04066226163689922 -0.023157475400835036 0.004046316751560181 -0.0225555098715763 0.013196442497688003 0.04187212172056656 -0.015521831959583544 -0.0030285821829963994
-0.026479247706426626 -0.00112808544530445 0.03115947005101788 0.0036387508687055676

Wy f8 [2, 50]
00000000: 4bbd b352 942e f23f f1dc 68c5 17fe e93f
00000010: 581f c163 b12c f53f 9fd9 1ffa dbf2 ef3f
00000020: 1cd5 e4ee b507 fa3f 81d6 5c28 a0a5 f0bf
00000030: 9479 4bec 8456 efbf 522d 08d8 37fa f2bf
00000040: 78d4 bb6d e1f2 f5bf c4ea 584b eb79 f53f
00000050: dfab 835d 7b7e ebbf 43e0 90df bbe7 f23f
00000060: c0bc 0377 82dc ea3f f0da 29e1 607b f53f
00000070: d803 7621 11b8 f43f e766 426c a47b f4bf
00000080: 78af e742 baac f1bf 55f5 144c 1428 f4bf
00000090: 01c5 d07f c1e7 f7bf c87b 5736 c993 f2bf
000000a0: 8fce 88f2 c7eb f13f 44e6 9350 8e2b f4bf
000000b0: 9003 f6e8 0783 f03f ec97 87be 5d3c f7bf
000000c0: a6a8 3d65 f060 f3bf cfe1 c339 8391 eebf
000000d0: ef41 a494 0a89 f63f 6f0a 90db c9d0 f23f
000000e0: ddc9 0ef4 a3a1 f3bf ac31 3fe2 0ffe f5bf
000000f0: 8c33 57f6 9ce0 f3bf 533a 9598 c454 e83f
00000100: 51d1 dfa9 e77a f2bf 0857 e511 fcc5 f0bf
00000110: 3c08 d5b2 9589 e73f 53d7 6df4 6a27 f3bf
00000120: 0f37 f8fd f076 f5bf 741d 848e b2c7 ed3f
00000130: 44f2 20e8 a8e6 ec3f 90c6 bc37 7035 f13f
00000140: b7d0 f16e 8585 f2bf 095a 3d7c 2e3b f2bf
00000150: 8480 2ad8 c00b eebf 64af 113f ff06 f5bf
00000160: 6913 8125 c432 f4bf 33a3 8047 56f5 f4bf
00000170: 5bde 7f4e 4fe3 e6bf 2a2c dcf5 1576 f43f
00000180: 120b aa40 a7ca f3bf ab7f c993 7340 ea3f
00000190: 3f12 814f 7c25 f33f 471f 8f0c f1ae f43f
000001a0: a220 f11c ae8b f03f 12ff 6f88 002b f43f
000001b0: c1d2 93ac 0b3f f13f 6945 6928 aa28 eabf
000001c0: 3887 60aa b414 f9bf e9d5 98b7 2825 e3bf
000001d0: 0678 305f ec28 f3bf e569 a47b 71a1 ec3f
000001e0: 5cbc 4dab a81e ecbf 7f60 7260 a3bb f13f
000001f0: e815 dadd 52b8 de3f 498f 8f92 d76d f13f
00000200: 203d 829f 0366 f23f 919a f4fe 1969 f0bf
00000210: 5946 981b cba2 f9bf 05a7 818b 730b f3bf
00000220: cde2 45b4 9862 f1bf 7286 e38a bf25 f2bf
00000230: 1767 c276 2452 f53f fe16 7d7f 3427 f6bf
00000240: aa9b 05b2 29c8 f53f d7a9 ab20 3a22 f6bf
00000250: 6d4f d11f d274 f8bf a9ae 8a68 cc4f f6bf
00000260: 2c64 2a95 7719 f43f e94f bb7e 1afd f33f
00000270: 31d6 98a7 5af8 f3bf e071 058b dbed f0bf
00000280: 8dad 7d50 3413 f1bf d95a 145c 47ee ea3f
00000290: 397a b00f 1255 e9bf a175 3af5 3392 f2bf
000002a0: 27a8 4812 0434 f03f d252 4b25 d957 f6bf
000002b0: 4783 3620 13b9 f3bf b08e f7cd d017 f43f
000002c0: 84c9 f2c9 19c8 f13f 853a d275 2d90 f03f
000002d0: 9633 cc28 c235 f7bf 205f b11b 4468 f2bf
000002e0: f880 b648 c788 f0bf 269f 5505 fbb8 efbf
000002f0: 26b2 5d13 d81a eebf c82e af25 4ad9 e5bf
00000300: 3452 fa5b 974f f1bf eaeb b03e a0b7 f73f
00000310: d7d9 c35a b53d f7bf 0316 658a 05bb f63f
1.1363719206381855 0.8122671943337122 1.3234113594680448 0.9983959088556736 1.626882489375311 -1.0404359413782063 -0.9793114295132903 -1.1860884131190983
-1.3717970167611195 1.3422654097800413 -0.8591896845294932 1.1815756543201281 0.8394176792625316 1.3426216884087658 1.2949382121153032 -1.2801861027605186
-1.104669820163478 -1.2597849819133746 -1.494081019667931 -1.1610805628513265 1.120063731575019 -1.2606337688033742 1.0319899654425377 -1.4522378389897268
-1.211166758987511 -0.9552627685762277 1.4084573561013902 1.175973756472242 -1.2269629987246085 -1.3745268666999477 -1.2423371908837195 0.7603476505408459
-1.1550060878481256 -1.0483360957200052 0.7355450146499218 -1.1971234844217704 -1.3415384216963877 0.9306271346585349 0.903156712890969 1.075546472286451
-1.1575979551098905 -1.1394486287223364 -0.9389347288124701 -1.3142082656513248 -1.262394091130057 -1.309896735483744 -0.715247777289686 1.2788295368106994
-1.2369759107538738 0.8203676115481263 1.1966517549164022 1.2927103510464393 1.0341015940230496 1.2604985551442422 1.0778919926935233 -0.8174639500886488
-1.567555108580974 -0.5982860170249157 -1.1974910467465647 0.8947074332129971 -0.8787425370955009 1.1083101050808464 0.480000225689166 1.0893169140844796
1.1499057989893302 -1.0256595572660994 -1.6022444799349584 -1.1902957391234292 -1.0865714113153218 -1.1342158723204219 1.3325543059385774 -1.3845715503716174
1.3613678888302538 -1.383356216067673 -1.5285207026363097 -1.3944820483838305 1.2562175585537814 1.2492928457695547 -1.248133330036023 -1.058070700694877
-1.0671885627915316 0.8415867613246873 -0.7916345888550672 -1.1606940821869574 1.0126991953097872 -1.3964473206335026 -1.232684255439567 1.2558143659197576
1.1113527191742785 1.0351996042624318 -1.4506246179255178 -1.15045557801745 -1.033393177065646 -0.9913306335629144 -0.940776861023157 -0.6827746139546997
-1.081931456840846 1.4823305558081707 -1.4525655313024026 1.4206595808076379

by f8 [2, 1]
00000000: daeb f4fd 27ae f3bf 8e7a 7168 3eb8 f2bf
-1.2300186081108593 -1.169981391889141
